model_components/cnn_weights.npz (npz, 439588 bytes, 5 tensors)

embedding f8 [38, 128]
0.0 0.0 0.0 0.0 0.0 0.0 0.0 0.0
0.0 0.0 0.0 0.0 0.0 0.0 0.0 0.0
0.0 0.0 0.0 0.0 0.0 0.0 0.0 0.0
0.0 0.0 0.0 0.0 0.0 0.0 0.0 0.0
0.0 0.0 0.0 0.0 0.0 0.0 0.0 0.0
0.0 0.0 0.0 0.0 0.0 0.0 0.0 0.0
0.0 0.0 0.0 0.0 0.0 0.0 0.0 0.0
0.0 0.0 0.0 0.0 0.0 0.0 0.0 0.0
0.0 0.0 0.0 0.0 0.0 0.0 0.0 0.0
0.0 0.0 0.0 0.0 0.0 0.0 0.0 0.0
0.0 0.0 0.0 0.0 0.0 0.0 0.0 0.0
0.0 0.0 0.0 0.0 0.0 0.0 0.0 0.0
0.0 0.0 0.0 0.0 0.0 0.0 0.0 0.0
0.0 0.0 0.0 0.0 0.0 0.0 0.0 0.0
0.0 0.0 0.0 0.0 0.0 0.0 0.0 0.0
0.0 0.0 0.0 0.0 0.0 0.0 0.0 0.0
-0.5985642075538635 0.9914301633834839 -1.9178314208984375 0.882680356502533 1.2251784801483154 -0.09699327498674393 -1.3748587369918823 -0.8579007983207703
1.187987208366394 0.9569125771522522 2.056931257247925 -0.16117116808891296 0.5226799249649048 -1.3355599641799927 0.3328258991241455 0.16008305549621582
-1.5044395923614502 2.133911371231079 -0.4808005392551422 0.26235347986221313 -1.3425400257110596 -0.03503258898854256 0.10554042458534241 0.3410645127296448
0.9054377675056458 0.5301010012626648 0.44609948992729187 -0.4909972548484802 0.3099842667579651 1.6193432807922363 -0.2757819592952728 -0.8514115214347839
1.506152868270874 0.04628623276948929 -1.419012427330017 -0.3274851441383362 -0.5350522398948669 0.6706413626670837 -0.017766322940587997 1.7920267581939697
-0.1076798290014267 -0.002822146052494645 1.6156338453292847 -0.3580634593963623 -1.2328516244888306 0.900728702545166 -1.0377166271209717 -0.21528854966163635
0.5021495819091797 0.7455453276634216 0.2787511646747589 -1.8973618745803833 1.275660514831543 -2.2344467639923096 0.9537451863288879 0.41530415415763855
-0.46542060375213623 0.9158716201782227 0.464776873588562 0.19084741175174713 -1.1117993593215942 1.5273140668869019 -1.3202747106552124 -0.07325966656208038
-1.008600115776062 1.3862768411636353 0.2939307987689972 0.3030206263065338 0.031976405531167984 0.5269442796707153 1.2650448083877563 0.31636905670166016
-0.6353778839111328 -0.6689431667327881 -1.9711649417877197 -0.9676876068115234 0.8958190679550171 -0.5249106287956238 1.0317662954330444 0.929585337638855
-0.22167930006980896 0.007291361223906279 -0.6170912981033325 -0.7434557676315308 -0.3722732365131378 -0.9940688014030457 1.6976580619812012 0.32556265592575073
-0.9139267802238464 -0.49408549070358276 -0.06332015246152878 1.2994755506515503 -0.5824781656265259 0.17923426628112793 1.2372193336486816 -1.2117387056350708
-0.8304744958877563 -0.3521476089954376 0.8748116493225098 0.4146586060523987 1.21112060546875 -0.07142899930477142 0.08674013614654541 -0.8601027727127075
-0.779259443283081 2.907017230987549 -0.8329934477806091 -0.5237724184989929 -0.3328351080417633 0.4987129867076874 0.9547961950302124 -0.8820351362228394
-0.46970924735069275 0.825499415397644 -0.5329847931861877 -1.0192079544067383 -0.16062834858894348 -1.195410132408142 0.5982295870780945 1.2216097116470337
0.014495168812572956 -0.4637663662433624 -0.3375060558319092 0.09499495476484299 0.2798241674900055 -1.142767071723938 0.35612040758132935 0.9960156083106995
00000000: 0000 0000 0000 0000 0000 0000 0000 0000
00000010: 0000 0000 0000 0000 0000 0000 0000 0000
00000020: 0000 0000 0000 0000 0000 0000 0000 0000
00000030: 0000 0000 0000 0000 0000 0000 0000 0000
00000040: 0000 0000 0000 0000 0000 0000 0000 0000
00000050: 0000 0000 0000 0000 0000 0000 0000 0000
00000060: 0000 0000 0000 0000 0000 0000 0000 0000
00000070: 0000 0000 0000 0000 0000 0000 0000 0000
00000080: 0000 0000 0000 0000 0000 0000 0000 0000
00000090: 0000 0000 0000 0000 0000 0000 0000 0000
000000a0: 0000 0000 0000 0000 0000 0000 0000 0000
000000b0: 0000 0000 0000 0000 0000 0000 0000 0000
000000c0: 0000 0000 0000 0000 0000 0000 0000 0000
000000d0: 0000 0000 0000 0000 0000 0000 0000 0000
000000e0: 0000 0000 0000 0000 0000 0000 0000 0000
000000f0: 0000 0000 0000 0000 0000 0000 0000 0000
00000100: 0000 0000 0000 0000 0000 0000 0000 0000
00000110: 0000 0000 0000 0000 0000 0000 0000 0000
00000120: 0000 0000 0000 0000 0000 0000 0000 0000
00000130: 0000 0000 0000 0000 0000 0000 0000 0000
00000140: 0000 0000 0000 0000 0000 0000 0000 0000
00000150: 0000 0000 0000 0000 0000 0000 0000 0000
00000160: 0000 0000 0000 0000 0000 0000 0000 0000
00000170: 0000 0000 0000 0000 0000 0000 0000 0000
00000180: 0000 0000 0000 0000 0000 0000 0000 0000
00000190: 0000 0000 0000 0000 0000 0000 0000 0000
000001a0: 0000 0000 0000 0000 0000 0000 0000 0000
000001b0: 0000 0000 0000 0000 0000 0000 0000 0000
000001c0: 0000 0000 0000 0000 0000 0000 0000 0000
000001d0: 0000 0000 0000 0000 0000 0000 0000 0000
000001e0: 0000 0000 0000 0000 0000 0000 0000 0000
000001f0: 0000 0000 0000 0000 0000 0000 0000 0000
00000200: 0000 0000 0000 0000 0000 0000 0000 0000
00000210: 0000 0000 0000 0000 0000 0000 0000 0000
00000220: 0000 0000 0000 0000 0000 0000 0000 0000
00000230: 0000 0000 0000 0000 0000 0000 0000 0000
00000240: 0000 0000 0000 0000 0000 0000 0000 0000
00000250: 0000 0000 0000 0000 0000 0000 0000 0000
00000260: 0000 0000 0000 0000 0000 0000 0000 0000
00000270: 0000 0000 0000 0000 0000 0000 0000 0000
00000280: 0000 0000 0000 0000 0000 0000 0000 0000
00000290: 0000 0000 0000 0000 0000 0000 0000 0000
000002a0: 0000 0000 0000 0000 0000 0000 0000 0000
000002b0: 0000 0000 0000 0000 0000 0000 0000 0000
000002c0: 0000 0000 0000 0000 0000 0000 0000 0000
000002d0: 0000 0000 0000 0000 0000 0000 0000 0000
000002e0: 0000 0000 0000 0000 0000 0000 0000 0000
000002f0: 0000 0000 0000 0000 0000 0000 0000 0000
00000300: 0000 0000 0000 0000 0000 0000 0000 0000
00000310: 0000 0000 0000 0000 0000 0000 0000 0000
00000320: 0000 0000 0000 0000 0000 0000 0000 0000
00000330: 0000 0000 0000 0000 0000 0000 0000 0000
00000340: 0000 0000 0000 0000 0000 0000 0000 0000
00000350: 0000 0000 0000 0000 0000 0000 0000 0000
00000360: 0000 0000 0000 0000 0000 0000 0000 0000
00000370: 0000 0000 0000 0000 0000 0000 0000 0000
00000380: 0000 0000 0000 0000 0000 0000 0000 0000
00000390: 0000 0000 0000 0000 0000 0000 0000 0000
000003a0: 0000 0000 0000 0000 0000 0000 0000 0000
000003b0: 0000 0000 0000 0000 0000 0000 0000 0000
000003c0: 0000 0000 0000 0000 0000 0000 0000 0000
000003d0: 0000 0000 0000 0000 0000 0000 0000 0000
000003e0: 0000 0000 0000 0000 0000 0000 0000 0000
000003f0: 0000 0000 0000 0000 0000 0000 0000 0000
00000400: 0000 0020 7027 e3bf 0000 00c0 cbb9 ef3f
00000410: 0000 0000 70af febf 0000 00e0 ea3e ec3f
00000420: 0000 00c0 549a f33f 0000 0020 8dd4 b8bf
00000430: 0000 00e0 6bff f5bf 0000 0060 ec73 ebbf
00000440: 0000 00e0 fe01 f33f 0000 0020 079f ee3f
00000450: 0000 0060 9874 0040 0000 00c0 41a1 c4bf
00000460: 0000 0040 cbb9 e03f 0000 0020 745e f5bf
00000470: 0000 0000 054d d53f 0000 0000 9a7d c43f
00000480: 0000 0040 2f12 f8bf 0000 0020 4012 0140
00000490: 0000 00a0 6fc5 debf 0000 0040 66ca d03f
000004a0: 0000 0040 0b7b f5bf 0000 00a0 caef a1bf
000004b0: 0000 0080 b204 bb3f 0000 0040 00d4 d53f
000004c0: 0000 00a0 58f9 ec3f 0000 0060 96f6 e03f
000004d0: 0000 00e0 e48c dc3f 0000 00c0 7f6c dfbf
000004e0: 0000 0040 c8d6 d33f 0000 0080 d4e8 f93f
000004f0: 0000 0060 69a6 d1bf 0000 0060 c33e ebbf
00000500: 0000 00c0 3319 f83f 0000 0040 d4b2 a73f
00000510: 0000 0060 46b4 f6bf 0000 0040 84f5 d4bf
00000520: 0000 00e0 251f e1bf 0000 00e0 e475 e53f
00000530: 0000 00c0 5531 92bf 0000 0040 24ac fc3f
00000540: 0000 00c0 e790 bbbf 0000 0020 781e 67bf
00000550: 0000 00e0 a2d9 f93f 0000 0000 83ea d6bf
00000560: 0000 00a0 c2b9 f3bf 0000 0000 c5d2 ec3f
00000570: 0000 00c0 7c9a f0bf 0000 0040 938e cbbf
00000580: 0000 0000 9c11 e03f 0000 00e0 81db e73f
00000590: 0000 0020 0fd7 d13f 0000 0020 985b febf
000005a0: 0000 0000 1b69 f43f 0000 00a0 25e0 01c0
000005b0: 0000 00a0 1485 ee3f 0000 00e0 5794 da3f
000005c0: 0000 0080 73c9 ddbf 0000 0000 d24e ed3f
000005d0: 0000 0080 e7be dd3f 0000 0020 b06d c83f
000005e0: 0000 0020 eec9 f1bf 0000 00e0 e06f f83f
000005f0: 0000 0060 d81f f5bf 0000 0040 25c1 b2bf
00000600: 0000 00e0 3923 f0bf 0000 00a0 302e f63f
00000610: 0000 0020 c3cf d23f 0000 00a0 b064 d33f
00000620: 0000 0020 365f a03f 0000 0040 badc e03f
00000630: 0000 00a0 9f3d f43f 0000 0000 643f d43f
00000640: 0000 0000 0455 e4bf 0000 0080 fb67 e5bf
00000650: 0000 0040 e489 ffbf 0000 0000 4cf7 eebf
00000660: 0000 00c0 8caa ec3f 0000 0060 11cc e0bf
00000670: 0000 0060 1d82 f03f 0000 00c0 29bf ed3f
00000680: 0000 00c0 fc5f ccbf 0000 00e0 8bdd 7d3f
00000690: 0000 0040 36bf e3bf 0000 00c0 63ca e7bf
000006a0: 0000 0020 53d3 d7bf 0000 0060 69cf efbf
000006b0: 0000 0080 9b29 fb3f 0000 00c0 04d6 d43f
000006c0: 0000 0060 e33e edbf 0000 00c0 189f dfbf
000006d0: 0000 00e0 bf35 b0bf 0000 00e0 a6ca f43f
000006e0: 0000 0040 a9a3 e2bf 0000 0000 26f1 c63f
000006f0: 0000 0080 a6cb f33f 0000 0020 4863 f3bf
00000700: 0000 0040 3f93 eabf 0000 0020 9689 d6bf
00000710: 0000 0000 75fe eb3f 0000 0040 c489 da3f
00000720: 0000 0000 c060 f33f 0000 00c0 2b49 b2bf
00000730: 0000 0000 9a34 b63f 0000 0040 f685 ebbf
00000740: 0000 0080 b1ef e8bf 0000 0040 9241 0740
00000750: 0000 00e0 e1a7 eabf 0000 0060 bec2 e0bf
00000760: 0000 00a0 2b4d d5bf 0000 00e0 e9ea df3f
00000770: 0000 00c0 b08d ee3f 0000 00c0 a139 ecbf
00000780: 0000 0060 b70f debf 0000 00c0 7d6a ea3f
00000790: 0000 0020 360e e1bf 0000 0000 ad4e f0bf
000007a0: 0000 0040 788f c4bf 0000 0060 6620 f3bf
000007b0: 0000 0060 b224 e33f 0000 00a0 b68b f33f
000007c0: 0000 00a0 a4af 8d3f 0000 0020 59ae ddbf
000007d0: 0000 0000 b399 d5bf 0000 00e0 9651 b83f
000007e0: 0000 00a0 a3e8 d13f 0000 0020 c648 f2bf
000007f0: 0000 0040 adca d63f 0000 0020 5cdf ef3f

conv1_weight f8 [128, 128, 3]
0.027172917500138283 -0.01106258574873209 -0.01359116192907095 -0.015977293252944946 0.0518922433257103 0.030819278210401535 0.019855262711644173 0.0069448212161660194
-0.017418496310710907 0.01389706414192915 -0.0159404706209898 0.04527086019515991 -0.03397415950894356 0.003018102375790477 -0.007495687808841467 0.019773008301854134
0.0241754911839962 0.012674656696617603 -0.024275442585349083 0.034688446670770645 0.028210802003741264 0.012826201505959034 -0.03547028452157974 -0.014801553450524807
0.0430113784968853 -0.021742302924394608 -0.0007463194197043777 0.027209624648094177 0.02274763211607933 0.004930384922772646 -0.055083855986595154 0.008092866279184818
-0.0026196104008704424 0.006390313617885113 0.04952675849199295 0.01769339106976986 -0.010340580716729164 -0.03604369983077049 0.015431222505867481 -0.033951517194509506
0.036669641733169556 -0.012359514832496643 -0.007893049158155918 0.0006006278563290834 0.045590464025735855 0.038536712527275085 0.04526934772729874 -0.006591154728084803
0.00733976811170578 -0.02287324145436287 0.015151101164519787 -0.03924572467803955 -0.042577337473630905 -0.013096398673951626 0.006668064743280411 -0.018404560163617134
0.027484657242894173 0.02059406042098999 0.02261064574122429 -0.042005088180303574 -0.030507022514939308 -0.04503880441188812 0.043799396604299545 -0.03067244216799736
-0.031773682683706284 -0.022235414013266563 -0.04243984818458557 0.011821682564914227 -0.01456515584141016 -0.0023495659697800875 0.04947900027036667 0.00701733585447073
0.011747842654585838 -0.018073201179504395 -0.04936198890209198 0.01674693450331688 -0.023517562076449394 0.03489108011126518 -0.011691288091242313 0.03652195259928703
0.023326793685555458 0.002982016187161207 0.013623290695250034 0.00949815008789301 -0.0017802969086915255 0.0029126955196261406 -0.02686706744134426 0.043335773050785065
0.03152742609381676 -0.03427642211318016 -0.019592594355344772 -0.0047522555105388165 -0.04996262863278389 0.03696686774492264 -0.009462864138185978 -0.00961414072662592
0.015149041078984737 -0.032786205410957336 -0.00938623771071434 0.00651097996160388 0.048161234706640244 0.03266243636608124 -0.008940477855503559 -0.03705509752035141
0.0268517155200243 0.028226392343640327 0.014861048199236393 0.038660597056150436 -0.04056417942047119 -0.020709555596113205 -0.059357840567827225 0.013034963048994541
-0.020875489339232445 -0.022812245413661003 -0.0061713154427707195 -0.039451777935028076 -0.03057427518069744 -0.002187887206673622 -0.03964600712060928 -0.006153530441224575
-0.034089673310518265 -0.0007317287381738424 0.0020232591778039932 -0.03299630060791969 0.03550424426794052 0.03896736726164818 -0.023774027824401855 0.0028067119419574738
0.046960439532995224 -0.021363412961363792 0.023319639265537262 -0.029775336384773254 -0.02604210563004017 -0.042609427124261856 -0.017428426072001457 -0.03500828146934509
-0.04491816461086273 0.0036926702596247196 -0.03108692355453968 -0.04581093043088913 -0.027209708467125893 0.0006723577971570194 0.040102701634168625 0.03963615372776985
-0.037308257073163986 -0.008866824209690094 0.007901616394519806 -0.03561840206384659 -0.02079007402062416 0.027657395228743553 -0.020286286249756813 -0.021107282489538193
-0.027677785605192184 0.06306704878807068 -0.011613545939326286 -0.02685817889869213 -0.015650197863578796 0.00948609784245491 -0.029418272897601128 0.003417495870962739
-0.03234435245394707 -0.004662022460252047 0.002157913288101554 0.012724031694233418 0.05303923413157463 0.05100424960255623 -0.0476001501083374 0.01810339093208313
-0.013499954715371132 -0.03965768963098526 -0.017771011218428612 -0.042863909155130386 -0.03094928152859211 -0.01973455771803856 -0.021308036521077156 0.039549678564071655
-0.019894395023584366 -0.009858733974397182 0.008581290021538734 0.02273179031908512 0.016821570694446564 -0.007804354652762413 -0.052162811160087585 0.01866808719933033
0.01102486439049244 0.03209026902914047 0.028470808640122414 0.00594086479395628 0.03721214830875397 0.03139727935194969 0.007082792464643717 -0.04757024720311165
-0.028830576688051224 0.03687814250588417 -0.042128872126340866 -0.012786837294697762 0.0025452570989727974 -0.0385410413146019 0.03307909518480301 0.030156096443533897
-0.052093759179115295 -0.008956074714660645 -0.005877395626157522 0.0005897069931961596 0.047072719782590866 -0.011387113481760025 -0.02502254769206047 0.01144039910286665
0.021433895453810692 0.028381817042827606 -0.054006580263376236 0.04887418448925018 0.01704598404467106 0.03608699142932892 -0.03777644783258438 0.03166444972157478
-0.00870259664952755 -0.04376643896102905 -0.04831552132964134 -0.02977314405143261 -0.04612012952566147 -0.043547846376895905 -0.03256296366453171 0.0173797570168972
0.03473780304193497 0.04629784822463989 -0.0121501125395298 0.03752666339278221 -0.04596015438437462 -0.04603628069162369 0.02506619691848755 0.017337191849946976
0.03693856671452522 -0.037571296095848083 -0.00988560076802969 -0.0228253286331892 -0.060019854456186295 -0.006882176268845797 -0.041006218641996384 -0.03956717252731323
-0.03938715159893036 0.044591013342142105 -0.015061304904520512 0.012529232539236546 -0.04625307768583298 -0.01901176944375038 0.00663360208272934 0.019245022907853127
0.02058652602136135 0.04771076887845993 -0.021666327491402626 0.017140448093414307 -0.027208035811781883 -0.027105381712317467 -0.029542123898863792 0.007071445230394602
00000000: 0000 00a0 37d3 9b3f 0000 0020 fba7 86bf
00000010: 0000 00e0 aed5 8bbf 0000 0000 5a5c 90bf
00000020: 0000 00c0 9e91 aa3f 0000 00c0 168f 9f3f
00000030: 0000 0020 f054 943f 0000 0040 2c72 7c3f
00000040: 0000 0080 27d6 91bf 0000 0060 1076 8c3f
00000050: 0000 00e0 b252 90bf 0000 0000 be2d a73f
00000060: 0000 00a0 0f65 a1bf 0000 0060 6bb9 683f
00000070: 0000 0060 ccb3 7ebf 0000 0020 603f 943f
00000080: 0000 00c0 75c1 983f 0000 00a0 2bf5 893f
00000090: 0000 0060 a9db 98bf 0000 0020 afc2 a13f
000000a0: 0000 00e0 4ae3 9c3f 0000 00a0 9f44 8a3f
000000b0: 0000 0040 2929 a2bf 0000 00e0 4650 8ebf
000000c0: 0000 0060 9605 a63f 0000 0040 9d43 96bf
000000d0: 0000 00c0 9474 48bf 0000 0000 d7dc 9b3f
000000e0: 0000 00c0 274b 973f 0000 0020 e231 743f
000000f0: 0000 0080 f333 acbf 0000 0020 fe92 803f
00000100: 0000 00a0 b875 65bf 0000 00c0 ba2c 7a3f
00000110: 0000 0040 925b a93f 0000 0060 371e 923f
00000120: 0000 0040 712d 85bf 0000 00e0 5174 a2bf
00000130: 0000 00a0 679a 8f3f 0000 00e0 1762 a1bf
00000140: 0000 0000 5dc6 a23f 0000 0000 f24f 89bf
00000150: 0000 0020 3b2a 80bf 0000 0080 6eae 433f
00000160: 0000 0020 a257 a73f 0000 0080 15bb a33f
00000170: 0000 0040 8b2d a73f 0000 00a0 53ff 7abf
00000180: 0000 0000 4e10 7e3f 0000 0040 156c 97bf
00000190: 0000 0060 8a07 8f3f 0000 0000 0418 a4bf
000001a0: 0000 0060 b2cc a5bf 0000 00e0 48d2 8abf
000001b0: 0000 0000 f94f 7b3f 0000 0020 a5d8 92bf
000001c0: 0000 0020 f024 9c3f 0000 0000 9c16 953f
000001d0: 0000 00c0 3e27 973f 0000 00e0 b081 a5bf
000001e0: 0000 00a0 3b3d 9fbf 0000 0080 530f a7bf
000001f0: 0000 00e0 df6c a63f 0000 00c0 9868 9fbf
00000200: 0000 00e0 a344 a0bf 0000 0060 e1c4 96bf
00000210: 0000 0000 adba a5bf 0000 0060 f735 883f
00000220: 0000 0020 56d4 8dbf 0000 00a0 653f 63bf
00000230: 0000 00c0 4f55 a93f 0000 00c0 35be 7c3f
00000240: 0000 00c0 400f 883f 0000 0000 c881 92bf
00000250: 0000 0080 f945 a9bf 0000 00c0 1b26 913f
00000260: 0000 00e0 fc14 98bf 0000 0060 3edd a13f
00000270: 0000 0020 9af1 87bf 0000 0060 01b3 a23f
00000280: 0000 00a0 fae2 973f 0000 00c0 bd6d 683f
00000290: 0000 0020 87e6 8b3f 0000 0020 c473 833f
000002a0: 0000 0040 1b2b 5dbf 0000 0080 5ddc 673f
000002b0: 0000 0060 0a83 9bbf 0000 0040 1b30 a63f
000002c0: 0000 00e0 5c24 a03f 0000 00e0 ad8c a1bf
000002d0: 0000 00c0 1410 94bf 0000 00e0 1977 73bf
000002e0: 0000 00a0 b394 a9bf 0000 0040 52ed a23f
000002f0: 0000 0020 4461 83bf 0000 0020 94b0 83bf
00000300: 0000 00e0 7506 8f3f 0000 0080 5ac9 a0bf
00000310: 0000 0080 1739 83bf 0000 00e0 41ab 7a3f
00000320: 0000 00e0 96a8 a83f 0000 0080 21b9 a03f
00000330: 0000 00a0 624f 82bf 0000 00c0 e2f8 a2bf
00000340: 0000 0020 047f 9b3f 0000 0020 61e7 9c3f
00000350: 0000 0020 786f 8e3f 0000 0060 52cb a33f
00000360: 0000 0000 d4c4 a4bf 0000 00c0 e234 95bf
00000370: 0000 00a0 2664 aebf 0000 0020 13b2 8a3f
00000380: 0000 0060 6260 95bf 0000 00e0 175c 97bf
00000390: 0000 00e0 1747 79bf 0000 0000 0633 a4bf
000003a0: 0000 00e0 dc4e 9fbf 0000 0000 55ec 61bf
000003b0: 0000 0040 7b4c a4bf 0000 00c0 7134 79bf
000003c0: 0000 00a0 3374 a1bf 0000 0080 2ffa 47bf
000003d0: 0000 0000 1593 603f 0000 0020 e4e4 a0bf
000003e0: 0000 00c0 9c2d a23f 0000 00e0 87f3 a33f
000003f0: 0000 0000 3858 98bf 0000 0000 1afe 663f
00000400: 0000 00e0 320b a83f 0000 0060 4ae0 95bf
00000410: 0000 0080 1ae1 973f 0000 0000 6d7d 9ebf
00000420: 0000 0020 c8aa 9abf 0000 0020 e7d0 a5bf
00000430: 0000 00e0 c1d8 91bf 0000 0000 9bec a1bf
00000440: 0000 0080 83ff a6bf 0000 0040 1740 6e3f
00000450: 0000 0020 40d5 9fbf 0000 00c0 8774 a7bf
00000460: 0000 00a0 dcdc 9bbf 0000 0060 2508 463f
00000470: 0000 0060 5788 a43f 0000 00a0 304b a43f
00000480: 0000 0060 111a a3bf 0000 0000 c528 82bf
00000490: 0000 0000 b92e 803f 0000 0040 933c a2bf
000004a0: 0000 0040 fe49 95bf 0000 0060 3852 9c3f
000004b0: 0000 00a0 edc5 94bf 0000 00c0 259d 95bf
000004c0: 0000 00c0 9057 9cbf 0000 0080 2925 b03f
000004d0: 0000 00c0 d7c8 87bf 0000 00e0 b580 9bbf
000004e0: 0000 0000 9b06 90bf 0000 0080 726d 833f
000004f0: 0000 00e0 d21f 9ebf 0000 0020 02ff 6b3f
00000500: 0000 0060 708f a0bf 0000 0020 7c18 73bf
00000510: 0000 00e0 78ad 613f 0000 00a0 0e0f 8a3f
00000520: 0000 0060 f527 ab3f 0000 00a0 3a1d aa3f
00000530: 0000 0000 0c5f a8bf 0000 0000 b289 923f
00000540: 0000 0040 dda5 8bbf 0000 0040 034e a4bf
00000550: 0000 0060 9032 92bf 0000 0020 42f2 a5bf
00000560: 0000 0020 2bb1 9fbf 0000 00c0 4b35 94bf
00000570: 0000 0020 c6d1 95bf 0000 0000 db3f a43f
00000580: 0000 0040 325f 94bf 0000 00e0 d030 84bf
00000590: 0000 0040 1193 813f 0000 00a0 0047 973f
000005a0: 0000 0080 ac39 913f 0000 0080 75f7 7fbf
000005b0: 0000 0080 15b5 aabf 0000 0020 ba1d 933f
000005c0: 0000 0040 3494 863f 0000 00c0 226e a03f
000005d0: 0000 00a0 7327 9d3f 0000 00c0 7255 783f
000005e0: 0000 0080 780d a33f 0000 00e0 4d13 a03f
000005f0: 0000 00a0 d802 7d3f 0000 00a0 205b a8bf
00000600: 0000 0040 c385 9dbf 0000 0020 b1e1 a23f
00000610: 0000 0060 ea91 a5bf 0000 0040 fc2f 8abf
00000620: 0000 0080 cad9 643f 0000 00c0 a6bb a3bf
00000630: 0000 0040 beef a03f 0000 0060 3de1 9e3f
00000640: 0000 0080 08ac aabf 0000 0000 9057 82bf
00000650: 0000 0060 e512 78bf 0000 0020 d252 433f
00000660: 0000 0060 ea19 a83f 0000 0080 2052 87bf
00000670: 0000 00c0 829f 99bf 0000 0060 106e 873f
00000680: 0000 0060 c4f2 953f 0000 0080 1f10 9d3f
00000690: 0000 0020 c0a6 abbf 0000 0080 0906 a93f
000006a0: 0000 00a0 8074 913f 0000 0080 fe79 a23f
000006b0: 0000 0040 6f57 a3bf 0000 00a0 5236 a03f
000006c0: 0000 00c0 aad2 81bf 0000 0000 8e68 a6bf
000006d0: 0000 00e0 cfbc a8bf 0000 00e0 d97c 9ebf
000006e0: 0000 00c0 0e9d a7bf 0000 0040 e74b a6bf
000006f0: 0000 00c0 17ac a0bf 0000 00c0 ffcb 913f
00000700: 0000 0040 27c9 a13f 0000 0000 5ab4 a73f
00000710: 0000 0080 28e2 88bf 0000 00e0 b136 a33f
00000720: 0000 00e0 1688 a7bf 0000 0040 1192 a7bf
00000730: 0000 0000 f4aa 993f 0000 0040 d7c0 913f
00000740: 0000 00a0 9ce9 a23f 0000 0080 8b3c a3bf
00000750: 0000 00e0 e63e 84bf 0000 00e0 855f 97bf
00000760: 0000 0020 ecba aebf 0000 0020 7c30 7cbf
00000770: 0000 0060 c4fe a4bf 0000 0000 2642 a4bf
00000780: 0000 0080 8d2a a4bf 0000 0020 a2d4 a63f
00000790: 0000 0020 76d8 8ebf 0000 0020 eda8 893f
000007a0: 0000 00c0 7bae a7bf 0000 0040 d277 93bf
000007b0: 0000 0000 d62b 7b3f 0000 00a0 f7b4 933f
000007c0: 0000 0060 a214 953f 0000 00c0 8b6d a83f
000007d0: 0000 00a0 b22f 96bf 0000 0000 448d 913f
000007e0: 0000 0060 6cdc 9bbf 0000 0060 83c1 9bbf
000007f0: 0000 0060 4a40 9ebf 0000 00a0 f2f6 7c3f

conv1_bias f8 [128]
-0.027008643373847008 -0.02432365156710148 0.0018677650950849056 0.04070746898651123 -0.01799025572836399 -0.006520356051623821 -0.038453128188848495 -0.027303306385874748
0.011796806007623672 0.03669986128807068 -0.028089476749300957 -0.007691900245845318 0.03812447190284729 -0.04290400445461273 0.03508853167295456 0.03268107771873474
0.009340628981590271 -0.008858409710228443 -0.028923558071255684 0.041480083018541336 0.04374345764517784 -0.011525561101734638 -0.035926997661590576 0.011836312711238861
-0.023462487384676933 0.026907620951533318 0.004728337749838829 -0.048981379717588425 0.012464147061109543 0.022845767438411713 -0.04277884215116501 -0.044567517936229706
0.026429222896695137 0.04276704043149948 0.0358821265399456 -0.011702250689268112 -0.04170013591647148 0.0381593182682991 0.03671475872397423 -0.020752672106027603
0.018196534365415573 -0.044577378779649734 -0.03721075505018234 -0.03539138659834862 0.012475765310227871 -0.006510030012577772 -0.00033401884138584137 -0.04504798725247383
-0.016934983432292938 0.02991539239883423 0.004079996608197689 -0.008880292996764183 -0.01249658316373825 -0.052653033286333084 0.03043246455490589 -0.02217545360326767
0.02115892432630062 -0.01864849030971527 -0.014924166724085808 0.008855781517922878 0.0022928600665181875 -0.027577411383390427 -0.0538504384458065 -0.05220283195376396
0.0348123162984848 -0.00031738041434437037 -0.033496275544166565 0.03397531062364578 0.03905019536614418 0.017582682892680168 -0.02744290791451931 0.021915292367339134
-0.006183340214192867 0.0342242531478405 0.0077139101922512054 -0.03464530408382416 0.0387425497174263 -0.001741832005791366 0.015856310725212097 0.00470322510227561
0.015156474895775318 -0.031491469591856 0.03745660185813904 -0.023143308237195015 -0.005427403841167688 -0.049907516688108444 -0.01918402500450611 0.006799814756959677
0.026494979858398438 0.03965893015265465 -0.03848281502723694 0.011496098712086678 0.03995564207434654 0.035729799419641495 -0.0027339207008481026 0.04834767431020737
0.0048982128500938416 0.016841206699609756 -0.03629148006439209 -0.02747008204460144 -0.002362511120736599 -0.03435688093304634 0.048214223235845566 -0.05014545097947121
0.02161218598484993 -0.048593416810035706 -0.03138849884271622 0.026563381776213646 -0.0005015440401621163 -0.046506304293870926 0.0025830587837845087 0.04274796321988106
0.03381803259253502 0.013442961499094963 -0.03481285646557808 0.05179668217897415 -0.01789885200560093 -0.05363555625081062 0.010080121457576752 0.011780507862567902
-0.03919687122106552 -0.013138416223227978 -0.04206668958067894 -0.022598648443818092 0.0006962436600588262 -0.025698278099298477 0.008608979173004627 -0.0037977860774844885
00000000: 0000 0060 27a8 9bbf 0000 00a0 4ce8 98bf
00000010: 0000 0080 f999 5e3f 0000 0000 9cd7 a43f
00000020: 0000 00a0 096c 92bf 0000 00c0 16b5 7abf
00000030: 0000 00e0 20b0 a3bf 0000 00e0 65f5 9bbf
00000040: 0000 0080 ec28 883f 0000 0000 53ca a23f
00000050: 0000 00e0 7cc3 9cbf 0000 00c0 8a81 7fbf
00000060: 0000 0000 0d85 a33f 0000 0080 83f7 a5bf
00000070: 0000 00c0 1ff7 a13f 0000 0000 93bb a03f
00000080: 0000 0000 2e21 833f 0000 00a0 5b24 82bf
00000090: 0000 0020 239e 9dbf 0000 00a0 e03c a53f
000000a0: 0000 00e0 8a65 a63f 0000 00a0 b69a 87bf
000000b0: 0000 0000 0665 a2bf 0000 0000 a33d 883f
000000c0: 0000 00e0 8c06 98bf 0000 00e0 ab8d 9b3f
000000d0: 0000 0080 055e 733f 0000 0060 1614 a9bf
000000e0: 0000 0080 cd86 893f 0000 0080 e164 973f
000000f0: 0000 00c0 1be7 a5bf 0000 00c0 8dd1 a6bf
00000100: 0000 0020 4310 9b3f 0000 00c0 8fe5 a53f
00000110: 0000 0060 245f a23f 0000 0080 59f7 87bf
00000120: 0000 0060 b859 a5bf 0000 0040 9e89 a33f
00000130: 0000 00e0 46cc a23f 0000 0040 3040 95bf
00000140: 0000 00c0 1ca2 923f 0000 00a0 d8d2 a6bf
00000150: 0000 00c0 490d a3bf 0000 00e0 d11e a2bf
00000160: 0000 00e0 e48c 893f 0000 00e0 42aa 7abf
00000170: 0000 0000 e8e3 35bf 0000 00a0 8710 a7bf
00000180: 0000 0080 6757 91bf 0000 0000 24a2 9e3f
00000190: 0000 00c0 2fb6 703f 0000 00c0 d42f 82bf
000001a0: 0000 0000 cf97 89bf 0000 00a0 56f5 aabf
000001b0: 0000 0020 b029 9f3f 0000 0080 29b5 96bf
000001c0: 0000 0060 afaa 953f 0000 0000 9718 93bf
000001d0: 0000 00c0 8f90 8ebf 0000 00e0 fa22 823f
000001e0: 0000 00e0 79c8 623f 0000 00c0 403d 9cbf
000001f0: 0000 00e0 4892 abbf 0000 0060 54ba aabf
00000200: 0000 0080 ebd2 a13f 0000 0080 c2cc 34bf
00000210: 0000 0080 6c26 a1bf 0000 0040 3665 a13f
00000220: 0000 0020 63fe a33f 0000 00e0 3101 923f
00000230: 0000 0060 fe19 9cbf 0000 0060 f670 963f
00000240: 0000 00c0 b353 79bf 0000 0060 d785 a13f
00000250: 0000 0000 9f98 7f3f 0000 0080 07bd a1bf
00000260: 0000 0040 10d6 a33f 0000 00e0 c589 5cbf
00000270: 0000 0000 a33c 903f 0000 0060 b043 733f
00000280: 0000 00a0 5b0a 8f3f 0000 0060 a61f a0bf
00000290: 0000 0000 832d a33f 0000 0020 e1b2 97bf
000002a0: 0000 00a0 0b3b 76bf 0000 0060 7a8d a9bf
000002b0: 0000 0020 faa4 93bf 0000 0060 1fda 7b3f
000002c0: 0000 0000 8021 9b3f 0000 00e0 2c4e a43f
000002d0: 0000 0000 05b4 a3bf 0000 0040 448b 873f
000002e0: 0000 00e0 1075 a43f 0000 0020 2d4b a23f
000002f0: 0000 0080 7265 66bf 0000 00c0 06c1 a83f
00000300: 0000 0000 2610 743f 0000 0040 d23e 913f
00000310: 0000 0000 cc94 a2bf 0000 0000 1e21 9cbf
00000320: 0000 0080 8b5a 63bf 0000 00a0 3997 a1bf
00000330: 0000 00e0 88af a83f 0000 0020 aaac a9bf
00000340: 0000 0040 8121 963f 0000 0080 3ce1 a8bf
00000350: 0000 0040 2712 a0bf 0000 0060 6e33 9b3f
00000360: 0000 00a0 416f 40bf 0000 00a0 accf a7bf
00000370: 0000 0020 1129 653f 0000 00a0 0fe3 a53f
00000380: 0000 00e0 9850 a13f 0000 00c0 fb87 8b3f
00000390: 0000 00a0 fdd2 a1bf 0000 0040 1885 aa3f
000003a0: 0000 00a0 1354 92bf 0000 00a0 1e76 abbf
000003b0: 0000 0000 e3a4 843f 0000 0000 6120 883f
000003c0: 0000 00c0 9c11 a4bf 0000 0060 50e8 8abf
000003d0: 0000 00e0 c389 a5bf 0000 00a0 1924 97bf
000003e0: 0000 00e0 83d0 463f 0000 0040 a650 9abf
000003f0: 0000 00a0 95a1 813f 0000 00e0 881c 6fbf

fc_weight f8 [5, 128]
-0.07080439478158951 0.009915949776768684 0.08117762953042984 -0.022461457177996635 0.025876488536596298 -0.047737423330545425 -0.0398610457777977 -0.0410303920507431
0.01305804867297411 0.02886955440044403 -0.07093777507543564 -0.0606059730052948 0.060940664261579514 -0.09628485888242722 0.03303617984056473 0.04653012752532959
0.10060609877109528 0.01365972962230444 -0.08554668724536896 0.08981949836015701 -0.047424811869859695 0.09153785556554794 0.06406839936971664 -0.030022719874978065
0.06763939559459686 -0.041714537888765335 -0.003563354955986142 -0.02071107178926468 0.03533664345741272 0.10117888450622559 -0.04864703118801117 -0.058870214968919754
-0.027650127187371254 0.07169181108474731 -0.054089099168777466 0.04031173139810562 0.0687752515077591 -0.09462951868772507 0.06848962604999542 -0.08357696235179901
-0.06490287184715271 -0.10310468077659607 -0.06700847297906876 -0.08540479093790054 -0.05251937359571457 -0.024438731372356415 -0.010737664997577667 -0.11808019876480103
0.05227458477020264 -0.016276530921459198 -0.0755208432674408 0.05839758366346359 0.0340518057346344 0.013710315339267254 -0.055614545941352844 -0.049246955662965775
-0.08545467257499695 -0.10549942404031754 -0.033909887075424194 0.05011390894651413 -0.012092831544578075 0.05246417596936226 -0.0480768084526062 -0.0016410035314038396
0.01933627761900425 -0.00029858938069082797 0.022229621186852455 -0.07706187665462494 0.033812955021858215 0.028256181627511978 -0.033498071134090424 -0.06285033375024796
-0.06592424213886261 0.08246824890375137 -0.04471868276596069 -0.027758784592151642 0.0659864991903305 -0.11368414014577866 -0.04299502074718475 0.010371015407145023
0.04810085892677307 -0.06733833998441696 -0.03441271185874939 0.019288575276732445 -0.010231906548142433 -0.013818372040987015 0.11112408339977264 0.07305462658405304
-0.07351646572351456 -0.06288667023181915 0.048246365040540695 0.07750241458415985 -0.11353068053722382 0.05703108012676239 -0.05894242227077484 -0.030734902247786522
0.08452658355236053 0.05492944270372391 0.030275681987404823 -0.08854341506958008 0.07919908314943314 -0.05848153680562973 0.001854022266343236 -0.055299896746873856
0.05996299535036087 0.001842266647145152 -0.04205062985420227 -0.08222569525241852 -0.046439435333013535 0.026283051818609238 -0.0804206132888794 -0.062386225908994675
0.02689853310585022 -0.028410043567419052 -0.04397540166974068 0.07799259573221207 0.0649898424744606 0.07739897817373276 -0.08067260682582855 0.03541792929172516
-0.016950109973549843 0.09106346219778061 0.05827954784035683 -0.05109143629670143 0.05065270513296127 0.030879495665431023 0.059060804545879364 0.018507637083530426
-0.022817103192210197 0.09322264045476913 -0.07114730775356293 -0.017355475574731827 -0.003787233727052808 -0.03541101515293121 0.022398481145501137 -0.03602593019604683
-0.09538274258375168 0.0836566612124443 0.06989842653274536 0.08463440090417862 0.0011611361987888813 -0.0917523056268692 -0.05922773480415344 -0.07116901874542236
-0.07723616063594818 -0.010789438150823116 0.0007693970110267401 0.03217625990509987 -0.08745372295379639 0.011837723664939404 0.015809182077646255 -0.040283508598804474
-0.06407876312732697 0.02044788934290409 0.05327606946229935 -0.046459801495075226 0.018663736060261726 -0.0713682547211647 -0.056069470942020416 0.06893651932477951
-0.05287979170680046 0.027971237897872925 0.0032520100940018892 -0.04224654287099838 0.016434963792562485 0.0952339842915535 0.019333817064762115 0.09273258596658707
-0.10208437591791153 -0.004068518523126841 0.047932472079992294 0.03358035534620285 -0.09550279378890991 0.0544477216899395 -0.09828300029039383 -0.020287754014134407
0.09345641732215881 -0.023766783997416496 0.08726681768894196 0.046587273478507996 -0.04956945404410362 0.07199643552303314 0.007487139664590359 0.002613495569676161
0.07284557819366455 0.02947654202580452 -0.10770164430141449 -0.018160760402679443 0.03346525505185127 0.09009631723165512 -0.012185191735625267 0.05419059842824936
-0.0588606633245945 -0.04504495486617088 0.07862260937690735 0.02765127457678318 0.07941045612096786 0.0776912048459053 -0.0637851133942604 -0.019412333145737648
-0.0686744824051857 0.0056874193251132965 -0.08221150189638138 -0.026412293314933777 0.09063967317342758 -0.06779331713914871 -0.0996590405702591 -0.041410766541957855
-0.01370389387011528 -0.0700063407421112 -0.039529260247945786 -0.08358728885650635 0.02658810466527939 0.015060304664075375 -0.0784626379609108 -0.04703570529818535
-0.04723995923995972 0.026198219507932663 0.037134308367967606 0.00959377083927393 0.017798997461795807 0.0006547181401401758 0.03674979507923126 -0.08048202842473984
-0.09645760804414749 -0.07646724581718445 0.08063556253910065 0.0838269293308258 -0.07470490783452988 0.014084424823522568 0.015614262782037258 -0.05619920417666435
-0.06577112525701523 -0.02172825299203396 0.10006178170442581 -0.019857758656144142 0.08585956692695618 0.001515393378213048 -0.09245511144399643 0.07214789092540741
-0.07554866373538971 0.013562744483351707 -0.03502627834677696 0.09871445596218109 0.09453798085451126 0.036997344344854355 0.04852670803666115 0.08202299475669861
0.022881943732500076 0.005877946503460407 -0.08910778164863586 -0.030507313087582588 -0.011796983890235424 0.08279792964458466 -0.0012069221120327711 0.04372209310531616
00000000: 0000 00a0 3c20 b2bf 0000 0040 d04e 843f
00000010: 0000 00a0 0ec8 b43f 0000 00e0 2200 97bf
00000020: 0000 00c0 5d7f 9a3f 0000 0020 0a71 a8bf
00000030: 0000 00c0 aa68 a4bf 0000 0080 ef01 a5bf
00000040: 0000 00a0 2dbe 8a3f 0000 0000 fb8f 9d3f
00000050: 0000 0060 fa28 b2bf 0000 0000 bf07 afbf
00000060: 0000 0060 9d33 af3f 0000 00e0 1fa6 b8bf
00000070: 0000 0040 1eea a03f 0000 0000 ccd2 a73f
00000080: 0000 0040 52c1 b93f 0000 00e0 a1f9 8b3f
00000090: 0000 0040 63e6 b5bf 0000 0020 69fe b63f
000000a0: 0000 00a0 1048 a8bf 0000 0060 066f b73f
000000b0: 0000 0060 c966 b03f 0000 00a0 46be 9ebf
000000c0: 0000 00c0 d050 b13f 0000 00a0 9b5b a5bf
000000d0: 0000 00a0 e530 6dbf 0000 0080 4835 95bf
000000e0: 0000 0000 a517 a23f 0000 0000 dce6 b93f
000000f0: 0000 0080 43e8 a8bf 0000 00a0 3c24 aebf
00000100: 0000 00a0 5050 9cbf 0000 0000 655a b23f
00000110: 0000 0000 91b1 abbf 0000 0040 bda3 a43f
00000120: 0000 0040 419b b13f 0000 00e0 a339 b8bf
00000130: 0000 0040 8988 b13f 0000 00c0 4c65 b5bf
00000140: 0000 0080 799d b0bf 0000 0080 1165 babf
00000150: 0000 00a0 7727 b1bf 0000 00a0 16dd b5bf
00000160: 0000 00c0 d1e3 aabf 0000 0080 7706 99bf
00000170: 0000 0000 a1fd 85bf 0000 0000 813a bebf
00000180: 0000 0000 bcc3 aa3f 0000 0080 cbaa 90bf
00000190: 0000 0080 5555 b3bf 0000 00c0 49e6 ad3f
000001a0: 0000 0000 3d6f a13f 0000 0060 2714 8c3f
000001b0: 0000 0080 8279 acbf 0000 00a0 e536 a9bf
000001c0: 0000 0080 5be0 b5bf 0000 00a0 0202 bbbf
000001d0: 0000 0000 a35c a1bf 0000 00c0 87a8 a93f
000001e0: 0000 0060 20c4 88bf 0000 00a0 95dc aa3f
000001f0: 0000 0000 869d a8bf 0000 0020 dee2 5abf
00000200: 0000 00a0 e3cc 933f 0000 00a0 7f91 33bf
00000210: 0000 00a0 5cc3 963f 0000 00c0 53ba b3bf
00000220: 0000 0080 ee4f a13f 0000 0040 30ef 9c3f
00000230: 0000 00c0 a826 a1bf 0000 00a0 f516 b0bf
00000240: 0000 0040 69e0 b0bf 0000 00a0 a31c b53f
00000250: 0000 0000 5ee5 a6bf 0000 0080 cc6c 9cbf
00000260: 0000 00c0 7de4 b03f 0000 0060 671a bdbf
00000270: 0000 0080 7103 a6bf 0000 0020 663d 853f
00000280: 0000 0000 ada0 a83f 0000 00e0 153d b1bf
00000290: 0000 0000 8b9e a1bf 0000 0060 62c0 933f
000002a0: 0000 0040 77f4 84bf 0000 0080 ce4c 8cbf
000002b0: 0000 00c0 a072 bc3f 0000 0040 b5b3 b23f
000002c0: 0000 00a0 f9d1 b2bf 0000 0040 5719 b0bf
000002d0: 0000 0060 bfb3 a83f 0000 00c0 32d7 b33f
000002e0: 0000 00c0 5810 bdbf 0000 0080 2d33 ad3f
000002f0: 0000 0080 b32d aebf 0000 0060 f878 9fbf
00000300: 0000 00c0 88a3 b53f 0000 0040 b61f ac3f
00000310: 0000 00a0 9600 9f3f 0000 0000 c8aa b6bf
00000320: 0000 0020 6446 b43f 0000 00c0 4af1 adbf
00000330: 0000 0040 5560 5e3f 0000 00a0 4450 acbf
00000340: 0000 0040 78b3 ae3f 0000 00c0 062f 5e3f
00000350: 0000 0000 a987 a5bf 0000 0040 be0c b5bf
00000360: 0000 00e0 e8c6 a7bf 0000 00c0 f1e9 9a3f
00000370: 0000 0000 7296 b4bf 0000 0060 16f1 afbf
00000380: 0000 0000 4a8b 9b3f 0000 00c0 8517 9dbf
00000390: 0000 00a0 f183 a6bf 0000 00a0 52f7 b33f
000003a0: 0000 00a0 2ca3 b03f 0000 0060 6bd0 b33f
000003b0: 0000 00c0 f5a6 b4bf 0000 0080 4c22 a23f
000003c0: 0000 00a0 5e5b 91bf 0000 0060 ef4f b73f
000003d0: 0000 0020 d1d6 ad3f 0000 0020 a828 aabf
000003e0: 0000 00c0 26ef a93f 0000 00e0 df9e 9f3f
000003f0: 0000 00c0 373d ae3f 0000 0080 aaf3 923f
00000400: 0000 00e0 5d5d 97bf 0000 0060 70dd b73f
00000410: 0000 00c0 b536 b2bf 0000 0040 a2c5 91bf
00000420: 0000 00a0 6706 6fbf 0000 0080 6421 a2bf
00000430: 0000 00a0 a0ef 963f 0000 00a0 fd71 a2bf
00000440: 0000 00e0 006b b8bf 0000 00e0 856a b53f
00000450: 0000 0000 dde4 b13f 0000 00a0 99aa b53f
00000460: 0000 0080 2806 533f 0000 0040 147d b7bf
00000470: 0000 0000 1953 aebf 0000 0000 2238 b2bf
00000480: 0000 00c0 bfc5 b3bf 0000 00e0 c518 86bf
00000490: 0000 0080 2b36 493f 0000 0020 6879 a03f
000004a0: 0000 0000 5e63 b6bf 0000 0060 603e 883f
000004b0: 0000 0040 4830 903f 0000 0040 0aa0 a4bf
000004c0: 0000 0040 7767 b0bf 0000 00a0 4af0 943f
000004d0: 0000 0040 0047 ab3f 0000 0040 94c9 a7bf
000004e0: 0000 0020 961c 933f 0000 00a0 3045 b2bf
000004f0: 0000 0040 23b5 acbf 0000 00e0 d2a5 b13f
00000500: 0000 0060 0f13 abbf 0000 0000 7ea4 9c3f
00000510: 0000 00a0 f5a3 6a3f 0000 00c0 56a1 a5bf
00000520: 0000 00c0 53d4 903f 0000 0020 4161 b83f
00000530: 0000 0080 3ecc 933f 0000 00a0 52bd b73f
00000540: 0000 00a0 3322 babf 0000 00a0 26aa 70bf
00000550: 0000 00e0 9a8a a83f 0000 00c0 7131 a13f
00000560: 0000 0000 df72 b8bf 0000 0060 92e0 ab3f
00000570: 0000 0020 1329 b9bf 0000 0020 50c6 94bf
00000580: 0000 0080 c2ec b73f 0000 00e0 5156 98bf
00000590: 0000 0040 1e57 b63f 0000 0080 49da a73f
000005a0: 0000 00e0 2a61 a9bf 0000 00c0 5b6e b23f
000005b0: 0000 00c0 d5aa 7e3f 0000 00c0 e568 653f
000005c0: 0000 0000 02a6 b23f 0000 0040 192f 9e3f
000005d0: 0000 00c0 5592 bbbf 0000 0000 bc98 92bf
000005e0: 0000 00a0 5b22 a13f 0000 0060 8d10 b73f
000005f0: 0000 00c0 8cf4 88bf 0000 00c0 debe ab3f
00000600: 0000 0020 fc22 aebf 0000 00e0 2110 a7bf
00000610: 0000 0080 9c20 b43f 0000 00a0 9d50 9c3f
00000620: 0000 0060 3e54 b43f 0000 0020 92e3 b33f
00000630: 0000 00a0 3854 b0bf 0000 00a0 d3e0 93bf
00000640: 0000 00a0 a694 b1bf 0000 0000 b14b 773f
00000650: 0000 0020 d00b b5bf 0000 0000 d30b 9bbf
00000660: 0000 0060 2934 b73f 0000 0020 e75a b1bf
00000670: 0000 0040 4183 b9bf 0000 00c0 ca33 a5bf
00000680: 0000 0080 c910 8cbf 0000 0080 efeb b1bf
00000690: 0000 00e0 2d3d a4bf 0000 0000 fa65 b5bf
000006a0: 0000 0080 e939 9b3f 0000 00e0 efd7 8e3f
000006b0: 0000 00a0 2016 b4bf 0000 0060 1015 a8bf
000006c0: 0000 0000 d62f a8bf 0000 00c0 b4d3 9a3f
000006d0: 0000 00a0 4403 a33f 0000 0020 e6a5 833f
000006e0: 0000 0080 e639 923f 0000 0080 2c74 453f
000006f0: 0000 0080 ded0 a23f 0000 0060 789a b4bf
00000700: 0000 0020 72b1 b8bf 0000 0080 5b93 b3bf
00000710: 0000 0040 88a4 b43f 0000 0080 ae75 b53f
00000720: 0000 0060 dc1f b3bf 0000 0080 4bd8 8c3f
00000730: 0000 00e0 5efa 8f3f 0000 0060 24c6 acbf
00000740: 0000 0060 60d6 b0bf 0000 0060 ee3f 96bf
00000750: 0000 0020 a69d b93f 0000 00a0 9755 94bf
00000760: 0000 0080 e4fa b53f 0000 0040 05d4 583f
00000770: 0000 0060 23ab b7bf 0000 00c0 4878 b23f
00000780: 0000 0040 2857 b3bf 0000 00c0 c8c6 8b3f
00000790: 0000 00e0 f6ee a1bf 0000 00c0 5945 b93f
000007a0: 0000 0020 a433 b83f 0000 00e0 50f1 a23f
000007b0: 0000 0020 7ed8 a83f 0000 0080 75ff b43f
000007c0: 0000 0040 5d6e 973f 0000 0040 7913 783f
000007d0: 0000 0080 c4cf b6bf 0000 0020 4f3d 9fbf
000007e0: 0000 0060 0429 88bf 0000 00c0 3e32 b53f
000007f0: 0000 00c0 32c6 53bf 0000 0000 be62 a63f

fc_bias f8 [5]
-0.003791021415963769 -0.016886061057448387 -0.014955844730138779 0.0442252941429615 -0.00048771180445328355
00000000: 0000 0020 590e 6fbf 0000 0060 944a 91bf
00000010: 0000 0080 2ba1 8ebf 0000 00a0 b2a4 a63f
00000020: 0000 0040 72f6 3fbf
